cuda:0
Access main
conditioned
VisionTransformer(
  (l1): Linear(in_features=6, out_features=12288, bias=False)
  (input_layer): Linear(in_features=1536, out_features=1536, bias=True)
  (transformer): Sequential(
    (0): AttentionBlock(
      (layer_norm_1): LayerNorm((1536,), eps=1e-05, elementwise_affine=True)
      (attn): MultiheadAttention(
        (out_proj): NonDynamicallyQuantizableLinear(in_features=1536, out_features=1536, bias=True)
      )
      (layer_norm_2): LayerNorm((1536,), eps=1e-05, elementwise_affine=True)
      (linear): Sequential(
        (0): Linear(in_features=1536, out_features=1536, bias=True)
        (1): GELU(approximate='none')
        (2): Dropout(p=0.2, inplace=False)
        (3): Linear(in_features=1536, out_features=1536, bias=True)
        (4): Dropout(p=0.2, inplace=False)
      )
    )
    (1): AttentionBlock(
      (layer_norm_1): LayerNorm((1536,), eps=1e-05, elementwise_affine=True)
      (attn): MultiheadAttention(
        (out_proj): NonDynamicallyQuantizableLinear(in_features=1536, out_features=1536, bias=True)
      )
      (layer_norm_2): LayerNorm((1536,), eps=1e-05, elementwise_affine=True)
      (linear): Sequential(
        (0): Linear(in_features=1536, out_features=1536, bias=True)
        (1): GELU(approximate='none')
        (2): Dropout(p=0.2, inplace=False)
        (3): Linear(in_features=1536, out_features=1536, bias=True)
        (4): Dropout(p=0.2, inplace=False)
      )
    )
    (2): AttentionBlock(
      (layer_norm_1): LayerNorm((1536,), eps=1e-05, elementwise_affine=True)
      (attn): MultiheadAttention(
        (out_proj): NonDynamicallyQuantizableLinear(in_features=1536, out_features=1536, bias=True)
      )
      (layer_norm_2): LayerNorm((1536,), eps=1e-05, elementwise_affine=True)
      (linear): Sequential(
        (0): Linear(in_features=1536, out_features=1536, bias=True)
        (1): GELU(approximate='none')
        (2): Dropout(p=0.2, inplace=False)
        (3): Linear(in_features=1536, out_features=1536, bias=True)
        (4): Dropout(p=0.2, inplace=False)
      )
    )
    (3): AttentionBlock(
      (layer_norm_1): LayerNorm((1536,), eps=1e-05, elementwise_affine=True)
      (attn): MultiheadAttention(
        (out_proj): NonDynamicallyQuantizableLinear(in_features=1536, out_features=1536, bias=True)
      )
      (layer_norm_2): LayerNorm((1536,), eps=1e-05, elementwise_affine=True)
      (linear): Sequential(
        (0): Linear(in_features=1536, out_features=1536, bias=True)
        (1): GELU(approximate='none')
        (2): Dropout(p=0.2, inplace=False)
        (3): Linear(in_features=1536, out_features=1536, bias=True)
        (4): Dropout(p=0.2, inplace=False)
      )
    )
  )
  (mlp_head): Sequential(
    (0): LayerNorm((1536,), eps=1e-05, elementwise_affine=True)
    (1): Linear(in_features=1536, out_features=1536, bias=False)
    (2): Dropout(p=0.2, inplace=False)
    (3): Linear(in_features=1536, out_features=2, bias=False)
  )
  (dropout): Dropout(p=0.2, inplace=False)
)
Epoch 0/49
----------
  0%|          | 0/1716 [00:00<?, ?it/s]
[1,    99] loss: 4.067 running loss:  276.217
accuracy: -4.541 
Score: -5.398 
[1,   199] loss: 3.504 running loss:  175.981
accuracy: -4.250 
Score: -2.853 
[1,   299] loss: 3.632 running loss:  170.771
accuracy: -4.079 
Score: -3.197 
[1,   399] loss: 2.859 running loss:  174.054
…
