cuda:0
Access main
conditioned
VisionTransformer(
  (l1): Linear(in_features=6, out_features=12288, bias=False)
  (input_layer): Linear(in_features=1536, out_features=1536, bias=True)
  (transformer): Sequential(
    (0): AttentionBlock(
      (layer_norm_1): LayerNorm((1536,), eps=1e-05, elementwise_affine=True)
      (attn): MultiheadAttention(
        (out_proj): NonDynamicallyQuantizableLinear(in_features=1536, out_features=1536, bias=True)
      )
      (layer_norm_2): LayerNorm((1536,), eps=1e-05, elementwise_affine=True)
      (linear): Sequential(
        (0): Linear(in_features=1536, out_features=1536, bias=True)
        (1): GELU(approximate='none')
        (2): Dropout(p=0.2, inplace=False)
        (3): Linear(in_features=1536, out_features=1536, bias=True)
        (4): Dropout(p=0.2, inplace=False)
      )
    )
    (1): AttentionBlock(
      (layer_norm_1): LayerNorm((1536,), eps=1e-05, elementwise_affine=True)
      (attn): MultiheadAttention(
        (out_proj): NonDynamicallyQuantizableLinear(in_features=1536, out_features=1536, bias=True)
      )
      (layer_norm_2): LayerNorm((1536,), eps=1e-05, elementwise_affine=True)
      (linear): Sequential(
        (0): Linear(in_features=1536, out_features=1536, bias=True)
        (1): GELU(approximate='none')
        (2): Dropout(p=0.2, inplace=False)
        (3): Linear(in_features=1536, out_features=1536, bias=True)
        (4): Dropout(p=0.2, inplace=False)
      )
    )
    (2): AttentionBlock(
      (layer_norm_1): LayerNorm((1536,), eps=1e-05, elementwise_affine=True)
      (attn): MultiheadAttention(
        (out_proj): NonDynamicallyQuantizableLinear(in_features=1536, out_features=1536, bias=True)
      )
      (layer_norm_2): LayerNorm((1536,), eps=1e-05, elementwise_affine=True)
      (linear): Sequential(
        (0): Linear(in_features=1536, out_features=1536, bias=True)
        (1): GELU(approximate='none')
        (2): Dropout(p=0.2, inplace=False)
        (3): Linear(in_features=1536, out_features=1536, bias=True)
        (4): Dropout(p=0.2, inplace=False)
      )
    )
    (3): AttentionBlock(
      (layer_norm_1): LayerNorm((1536,), eps=1e-05, elementwise_affine=True)
      (attn): MultiheadAttention(
        (out_proj): NonDynamicallyQuantizableLinear(in_features=1536, out_features=1536, bias=True)
      )
      (layer_norm_2): LayerNorm((1536,), eps=1e-05, elementwise_affine=True)
      (linear): Sequential(
        (0): Linear(in_features=1536, out_features=1536, bias=True)
        (1): GELU(approximate='none')
        (2): Dropout(p=0.2, inplace=False)
        (3): Linear(in_features=1536, out_features=1536, bias=True)
        (4): Dropout(p=0.2, inplace=False)
      )
    )
  )
  (mlp_head): Sequential(
    (0): LayerNorm((1536,), eps=1e-05, elementwise_affine=True)
    (1): Linear(in_features=1536, out_features=1536, bias=False)
    (2): Dropout(p=0.2, inplace=False)
    (3): Linear(in_features=1536, out_features=2, bias=False)
  )
  (dropout): Dropout(p=0.2, inplace=False)
)
Epoch 0/49
----------
  0%|          | 0/1716 [00:00<?, ?it/s]
[1,    99] loss: 3.584 running loss:  359.622
accuracy: -4.389 
Score: -6.689 
[1,   199] loss: 3.581 running loss:  169.504
accuracy: -4.273 
Score: -4.116 
[1,   299] loss: 4.232 running loss:  171.144
accuracy: -4.278 
Score: -4.119 
[1,   399] loss: 0.381 running loss:  74.720
…
