cuda:0
Discriminator(
  (l1): Linear(in_features=106, out_features=12288, bias=False)
  (conv1): Conv2d(6, 64, kernel_size=(6, 6), stride=(2, 2), padding=(4, 4), bias=False)
  (conv2): LeakyReLU(negative_slope=0.2, inplace=True)
  (conv3): Conv2d(64, 128, kernel_size=(6, 6), stride=(2, 2), padding=(5, 5), bias=False)
  (conv4): BatchNorm2d(128, eps=1e-05, momentum=0.1, affine=True, track_running_stats=True)
  (conv5): LeakyReLU(negative_slope=0.2, inplace=True)
  (conv6): Conv2d(128, 256, kernel_size=(6, 6), stride=(2, 2), padding=(4, 4), bias=False)
  (conv7): BatchNorm2d(256, eps=1e-05, momentum=0.1, affine=True, track_running_stats=True)
  (conv8): LeakyReLU(negative_slope=0.2, inplace=True)
  (conv9): Conv2d(256, 512, kernel_size=(6, 6), stride=(2, 2), padding=(2, 2), bias=False)
  (conv10): BatchNorm2d(512, eps=1e-05, momentum=0.1, affine=True, track_running_stats=True)
  (conv11): LeakyReLU(negative_slope=0.2, inplace=True)
  (conv12): Conv2d(512, 1, kernel_size=(6, 6), stride=(1, 1), bias=False)
  (conv13): Sigmoid()
)
Generator(
  (conv1): ConvTranspose2d(106, 512, kernel_size=(6, 6), stride=(1, 1), bias=False)
  (conv2): BatchNorm2d(512, eps=1e-05, momentum=0.1, affine=True, track_running_stats=True)
  (conv3): ReLU(inplace=True)
  (conv4): ConvTranspose2d(512, 256, kernel_size=(6, 6), stride=(2, 2), padding=(2, 2), bias=False)
  (conv5): BatchNorm2d(256, eps=1e-05, momentum=0.1, affine=True, track_running_stats=True)
  (conv6): ReLU(inplace=True)
  (conv7): ConvTranspose2d(256, 128, kernel_size=(6, 6), stride=(2, 2), padding=(4, 4), bias=False)
  (conv8): BatchNorm2d(128, eps=1e-05, momentum=0.1, affine=True, track_running_stats=True)
  (conv9): ReLU(inplace=True)
  (conv10): ConvTranspose2d(128, 64, kernel_size=(6, 6), stride=(2, 2), padding=(5, 5), bias=False)
  (conv11): BatchNorm2d(64, eps=1e-05, momentum=0.1, affine=True, track_running_stats=True)
  (conv12): ReLU(inplace=True)
  (conv13): ConvTranspose2d(64, 3, kernel_size=(6, 6), stride=(2, 2), padding=(4, 4), bias=False)
  (conv14): Tanh()
)
Epoch [1/110], loss_g: 7.6099, loss_d: 1.9264, real_score: 0.8183, D(G(z)): 0.7258 / 0.0509
Epoch [1/110], loss_g: 12.5068, loss_d: 0.2125, real_score: 0.9788, D(G(z)): 0.0744 / 0.0045
Epoch [1/110], loss_g: 7.1845, loss_d: 0.1532, real_score: 0.9896, D(G(z)): 0.0647 / 0.0101
Epoch [1/110], loss_g: 7.1281, loss_d: 1.7461, real_score: 0.9982, D(G(z)): 0.7361 / 0.0026
…
